htree/tmp/Results/20250227_182200/weight_history.npy (npy, 928 bytes, 1 tensors)

array f8 [100]
0.0 0.0 0.0 0.0 0.0 0.0 0.0 0.0
0.0 0.0 0.0 0.0 0.0 0.0 0.0 0.0
0.0 0.0 0.0 0.0 0.0 0.0 0.0 0.0
0.0 0.0 0.0 0.0 0.0 0.0 0.0 0.0
0.0 0.0 0.0 0.0 0.0 0.0 0.0 0.0
0.0 0.0 0.0 0.0 0.0 0.0 0.0 0.0
0.0 0.0 0.0 -0.02040816326530612 -0.04081632653061224 -0.061224489795918366 -0.08163265306122448 -0.10204081632653061
-0.12244897959183673 -0.14285714285714285 -0.16326530612244897 -0.1836734693877551 -0.20408163265306123 -0.22448979591836735 -0.24489795918367346 -0.2653061224489796
-0.2857142857142857 -0.30612244897959184 -0.32653061224489793 -0.3469387755102041 -0.3673469387755102 -0.3877551020408163 -0.40816326530612246 -0.42857142857142855
-0.4489795918367347 -0.46938775510204084 -0.4897959183673469 -0.5102040816326531 -0.5306122448979592 -0.5510204081632653 -0.5714285714285714 -0.5918367346938775
-0.6122448979591837 -0.6326530612244898 -0.6530612244897959 -0.673469387755102 -0.6938775510204082 -0.7142857142857143 -0.7346938775510204 -0.7551020408163265
-0.7755102040816326 -0.7959183673469388 -0.8163265306122449 -0.8367346938775511 -0.8571428571428571 -0.8775510204081632 -0.8979591836734694 -0.9183673469387755
-0.9387755102040817 -0.9591836734693877 -0.9795918367346939 -1.0
00000000: 0000 0000 0000 0000 0000 0000 0000 0000
00000010: 0000 0000 0000 0000 0000 0000 0000 0000
00000020: 0000 0000 0000 0000 0000 0000 0000 0000
00000030: 0000 0000 0000 0000 0000 0000 0000 0000
00000040: 0000 0000 0000 0000 0000 0000 0000 0000
00000050: 0000 0000 0000 0000 0000 0000 0000 0000
00000060: 0000 0000 0000 0000 0000 0000 0000 0000
00000070: 0000 0000 0000 0000 0000 0000 0000 0000
00000080: 0000 0000 0000 0000 0000 0000 0000 0000
00000090: 0000 0000 0000 0000 0000 0000 0000 0000
000000a0: 0000 0000 0000 0000 0000 0000 0000 0000
000000b0: 0000 0000 0000 0000 0000 0000 0000 0000
000000c0: 0000 0000 0000 0000 0000 0000 0000 0000
000000d0: 0000 0000 0000 0000 0000 0000 0000 0000
000000e0: 0000 0000 0000 0000 0000 0000 0000 0000
000000f0: 0000 0000 0000 0000 0000 0000 0000 0000
00000100: 0000 0000 0000 0000 0000 0000 0000 0000
00000110: 0000 0000 0000 0000 0000 0000 0000 0000
00000120: 0000 0000 0000 0000 0000 0000 0000 0000
00000130: 0000 0000 0000 0000 0000 0000 0000 0000
00000140: 0000 0000 0000 0000 0000 0000 0000 0000
00000150: 0000 0000 0000 0000 0000 0000 0000 0000
00000160: 0000 0000 0000 0000 0000 0000 0000 0000
00000170: 0000 0000 0000 0000 0000 0000 0000 0000
00000180: 0000 0000 0000 0000 0000 0000 0000 0000
00000190: 0000 0000 0000 0000 3905 2fa7 e0e5 94bf
000001a0: 3905 2fa7 e0e5 a4bf d687 c6fa d058 afbf
000001b0: 3905 2fa7 e0e5 b4bf 88c6 fad0 581f babf
000001c0: d687 c6fa d058 bfbf 9224 4992 2449 c2bf
000001d0: 3905 2fa7 e0e5 c4bf e1e5 14bc 9c82 c7bf
000001e0: 88c6 fad0 581f cabf 2fa7 e0e5 14bc ccbf
000001f0: d687 c6fa d058 cfbf 3f34 d687 c6fa d0bf
00000200: 9224 4992 2449 d2bf e614 bc9c 8297 d3bf
00000210: 3905 2fa7 e0e5 d4bf 8df5 a1b1 3e34 d6bf
00000220: e1e5 14bc 9c82 d7bf 34d6 87c6 fad0 d8bf
00000230: 88c6 fad0 581f dabf dbb6 6ddb b66d dbbf
00000240: 2fa7 e0e5 14bc dcbf 8397 53f0 720a debf
00000250: d687 c6fa d058 dfbf 15bc 9c82 9753 e0bf
00000260: 3f34 d687 c6fa e0bf 68ac 0f8d f5a1 e1bf
00000270: 9224 4992 2449 e2bf bc9c 8297 53f0 e2bf
00000280: e614 bc9c 8297 e3bf 108d f5a1 b13e e4bf
00000290: 3905 2fa7 e0e5 e4bf 637d 68ac 0f8d e5bf
000002a0: 8df5 a1b1 3e34 e6bf b76d dbb6 6ddb e6bf
000002b0: e1e5 14bc 9c82 e7bf 0a5e 4ec1 cb29 e8bf
000002c0: 34d6 87c6 fad0 e8bf 5e4e c1cb 2978 e9bf
000002d0: 88c6 fad0 581f eabf b23e 34d6 87c6 eabf
000002e0: dbb6 6ddb b66d ebbf 052f a7e0 e514 ecbf
000002f0: 2fa7 e0e5 14bc ecbf 591f 1aeb 4363 edbf
00000300: 8397 53f0 720a eebf ac0f 8df5 a1b1 eebf
00000310: d687 c6fa d058 efbf 0000 0000 0000 f0bf
